models/model1.tflite (tflite, 57104 bytes, 13 tensors)

tfl.pseudo_qconst1 i1 [10, 128]
00000000: d0d5 40cc feb9 a027 2222 b615 d51e 23e1
00000010: d0bf 1fc1 1a2d 101f 24af 2528 20bb 1817
00000020: e5b7 be28 e0e0 1c17 c101 1fc8 12e6 d1b3
00000030: a3bb d0cd b6c2 f2d1 1cc2 cfd0 e1ea bd94
00000040: 2813 b3f3 b5b7 1b27 f1e9 2bc3 eb22 230f
00000050: d6d0 3d1a fc35 81df 2acb fdba 282a c622
00000060: d6b1 150c c8b5 e620 1ba7 a614 2ab0 d8c4
00000070: d61e c5db 2122 e8cc 272b 3126 e1ab 2521
00000080: 09d6 b524 250f f2d1 81ef 2bb3 29d8 0891
00000090: cf06 ca11 db0d 15d8 2622 0bda 2324 1825
000000a0: 10b8 b220 bdd9 f312 1812 26d4 0edc 0025
000000b0: 100f c6f9 0be0 abab d81d 2600 2716 dc11
000000c0: 2009 23f3 d6ae 30b7 d6f3 de24 21d3 011c
000000d0: e5f6 320b cd0f 1bc4 dbd6 2c22 ecc0 caef
000000e0: ebb0 14d6 a4a1 0024 39fe c829 c2ae b4cd
000000f0: bade a620 1be7 de19 26e2 dcf5 1a15 e721
-48 -43 64 -52 -2 -71 -96 39
34 34 -74 21 -43 30 35 -31
-48 -65 31 -63 26 45 16 31
36 -81 37 40 32 -69 24 23
-27 -73 -66 40 -32 -32 28 23
-63 1 31 -56 18 -26 -47 -77
-93 -69 -48 -51 -74 -62 -14 -47
28 -62 -49 -48 -31 -22 -67 -108
40 19 -77 -13 -75 -73 27 39
-15 -23 43 -61 -21 34 35 15
-42 -48 61 26 -4 53 -127 -33
42 -53 -3 -70 40 42 -58 34
-42 -79 21 12 -56 -75 -26 32
27 -89 -90 20 42 -80 -40 -60
-42 30 -59 -37 33 34 -24 -52
39 43 49 38 -31 -85 37 33
9 -42 -75 36 37 15 -14 -47
-127 -17 43 -77 41 -40 8 -111
-49 6 -54 17 -37 13 21 -40
38 34 11 -38 35 36 24 37
16 -72 -78 32 -67 -39 -13 18
24 18 38 -44 14 -36 0 37
16 15 -58 -7 11 -32 -85 -85
-40 29 38 0 39 22 -36 17
32 9 35 -13 -42 -82 48 -73
-42 -13 -34 36 33 -45 1 28
-27 -10 50 11 -51 15 27 -60
-37 -42 44 34 -20 -64 -54 -17
-21 -80 20 -42 -92 -95 0 36
57 -2 -56 41 -62 -82 -76 -51
-70 -34 -90 32 27 -25 -34 25
38 -30 -36 -11 26 21 -25 33

tfl.pseudo_qconst3 i1 [128, 128]
00000000: ddec 5bf3 f020 f719 1522 1cfc ebc0 b528
00000010: 2437 e035 ee2c 10cd 1eea 18cf 603a 12e2
00000020: 1e81 3c5b b62f d406 7d0e f7e9 08ee e800
00000030: fb20 1329 35ec d1d2 3213 ebb7 f226 fc3b
00000040: f720 32cb c72b da0c d0bf 1623 0a0b 2ab3
00000050: 0ee1 cd12 c2f7 64c8 f3fa a108 2e3e f902
00000060: 0de2 f536 f3ea 1ff4 af67 d2d2 0933 20d4
00000070: cf60 f101 e9c9 e125 d0f3 34c7 23ef 03c1
00000080: f3c9 670b 0ee3 dc17 c554 edd7 cd06 d9ec
00000090: 2a70 2327 fee5 fcf7 f4ee acbb f515 0053
000000a0: f734 0015 0116 8bc0 1526 c8fb 20ef 230e
000000b0: f7a6 ec20 099d ce07 ea1e afe2 f720 cdff
000000c0: db43 0481 e4f6 fd11 0b1c fbed e7eb 7b35
000000d0: 39c9 ccf1 befe 2517 ebf3 e31b 0b05 171d
000000e0: 0a49 19e9 efce 301b f339 04c3 c024 2fe1
000000f0: f52e 13ee a0b3 cdfc 2413 0deb fc98 cfe2
-35 -20 91 -13 -16 32 -9 25
21 34 28 -4 -21 -64 -75 40
36 55 -32 53 -18 44 16 -51
30 -22 24 -49 96 58 18 -30
30 -127 60 91 -74 47 -44 6
125 14 -9 -23 8 -18 -24 0
-5 32 19 41 53 -20 -47 -46
50 19 -21 -73 -14 38 -4 59
-9 32 50 -53 -57 43 -38 12
-48 -65 22 35 10 11 42 -77
14 -31 -51 18 -62 -9 100 -56
-13 -6 -95 8 46 62 -7 2
13 -30 -11 54 -13 -22 31 -12
-81 103 -46 -46 9 51 32 -44
-49 96 -15 1 -23 -55 -31 37
-48 -13 52 -57 35 -17 3 -63
-13 -55 103 11 14 -29 -36 23
-59 84 -19 -41 -51 6 -39 -20
42 112 35 39 -2 -27 -4 -9
-12 -18 -84 -69 -11 21 0 83
-9 52 0 21 1 22 -117 -64
21 38 -56 -5 32 -17 35 14
-9 -90 -20 32 9 -99 -50 7
-22 30 -81 -30 -9 32 -51 -1
-37 67 4 -127 -28 -10 -3 17
11 28 -5 -19 -25 -21 123 53
57 -55 -52 -15 -66 -2 37 23
-21 -13 -29 27 11 5 23 29
10 73 25 -23 -17 -50 48 27
-13 57 4 -61 -64 36 47 -31
-11 46 19 -18 -96 -77 -51 -4
36 19 13 -21 -4 -104 -49 -30

tfl.pseudo_qconst4 i1 [128] scale=0.005498907 zero_point=127
00000000: 3740 09dd 2b2a 474a 4319 0556 45f1 db49
00000010: 4afb 373f 4341 352c 1943 2a58 1e28 153b
00000020: ea47 2924 2924 3c2c 4c1c 2498 8b26 aa5c
00000030: 5a32 414b 3c40 472f 3f41 365d 464d 6343
00000040: 2b23 a449 3d34 1cf0 5341 a025 500f 54b0
00000050: 544f a544 800d 2a56 1871 3e21 3c4e 4d49
00000060: ac37 3e40 2e0d 1bd3 5437 db45 3f31 4813
00000070: 1112 d146 5029 4555 2e32 5e54 3f2f fc01
-0.39592132 -0.34643114 -0.648871 -0.89082295 -0.4619082 -0.4674071 -0.30793878 -0.29144207
-0.32993442 -0.5608885 -0.67086667 -0.2254552 -0.31893662 -0.7808448 -0.9018208 -0.29694098
-0.29144207 -0.7258557 -0.39592132 -0.35193005 -0.32993442 -0.34093225 -0.40691912 -0.45640928
-0.5608885 -0.32993442 -0.4674071 -0.21445738 -0.533394 -0.4784049 -0.58288413 -0.3739257
-0.8193371 -0.30793878 -0.472906 -0.50040054 -0.472906 -0.50040054 -0.36842677 -0.45640928
-0.28044426 -0.5443918 -0.50040054 -1.2702476 -1.3417333 -0.48940274 -1.1712672 -0.19246174
-0.20345956 -0.42341584 -0.34093225 -0.28594318 -0.36842677 -0.34643114 -0.30793878 -0.43991256
-0.35193005 -0.34093225 -0.4014202 -0.18696284 -0.3134377 -0.27494535 -0.15396939 -0.32993442
-0.4619082 -0.5058994 -1.2042606 -0.29694098 -0.36292785 -0.41241804 -0.5443918 -0.7863437
-0.24195191 -0.34093225 -1.2262563 -0.49490163 -0.25844863 -0.61587757 -0.236453 -1.1382737
-0.236453 -0.26394755 -1.1987617 -0.3244355 -1.4022213 -0.6268754 -0.4674071 -0.2254552
-0.5663874 -0.076984696 -0.35742897 -0.51689726 -0.36842677 -0.26944643 -0.27494535 -0.29694098
-1.1602694 -0.39592132 -0.35742897 -0.34643114 -0.44541147 -0.6268754 -0.5498907 -0.945812
-0.236453 -0.39592132 -0.9018208 -0.31893662 -0.35193005 -0.42891476 -0.3024399 -0.59388196
-0.6048798 -0.59938085 -0.9568098 -0.3134377 -0.25844863 -0.472906 -0.31893662 -0.2309541
-0.44541147 -0.42341584 -0.18146393 -0.236453 -0.35193005 -0.43991256 -0.7203568 -0.6928623

tfl.pseudo_qconst5 i1 [128] scale=0.084013045 zero_point=-128
00000000: 0fff e4c7 e4e0 ffff e7cb d335 e8bf b025
00000010: 1cbd 13eb 163c d7c7 d4d9 d37f cfe4 de01
00000020: aa02 d0e8 01c0 09ea f8e2 e5b5 add0 b950
00000030: 27ff e22b f8da efd9 1403 ec2a f902 75e4
00000040: e2ca b013 efda bfc2 391f b2f9 20d4 3ab3
00000050: 0dfb add2 b8c4 d444 c656 02c6 1f3d 190b
00000060: bafd 0ef7 d9c0 b7a8 24e7 c015 f1f4 ecd5
00000070: cad6 c4f9 07e4 1509 e02f 4109 39d6 c1b3
12.013865 10.669657 8.401304 5.9649262 8.401304 8.065252 10.669657 10.669657
8.653343 6.300978 6.9730825 15.206361 8.737356 5.292822 4.032626 13.862152
13.106035 5.124796 12.349917 8.989396 12.601956 15.794453 7.309135 5.9649262
7.0570955 7.477161 6.9730825 21.423326 6.6370306 8.401304 7.8972263 10.837683
3.5285478 10.921696 6.7210436 8.737356 10.837683 5.376835 11.509788 8.905383
10.081566 8.233278 8.485317 4.4526916 3.780587 6.7210436 4.7887435 17.474712
14.030178 10.669657 8.233278 14.366231 10.081566 7.561174 9.325448 7.477161
12.43393 11.005709 9.073409 14.282218 10.165579 10.921696 20.583197 8.401304
8.233278 6.216965 4.032626 12.349917 9.325448 7.561174 5.292822 5.544861
15.542414 13.358074 4.200652 10.165579 13.442087 7.0570955 15.626427 4.284665
11.8458395 10.333605 3.780587 6.8890696 4.7047305 5.712887 7.0570955 16.466557
5.8809133 17.978792 10.921696 5.8809133 13.358074 15.878466 12.853996 11.677814
4.8727565 10.501631 11.9298525 9.997552 7.477161 5.376835 4.6207175 3.3605218
13.778139 8.653343 5.376835 12.517943 9.493474 9.745513 9.073409 7.141109
6.216965 7.225122 5.712887 10.165579 11.341761 8.401304 12.517943 11.509788
8.065252 14.702283 16.214518 11.509788 15.542414 7.225122 5.460848 4.284665

tfl.pseudo_qconst7 i1 [128, 1, 1, 64]
00000000: dd08 5f06 fcef 1f13 2b2f e906 db54 ffd5
00000010: ec1d 7fd0 a024 0c49 bdd5 ca13 238c 0f2a
00000020: e92a 0c4d d835 e434 cedb e456 f105 0ce9
00000030: 092e 2f02 d6ec 3ef9 432c 9304 e1f7 2ada
00000040: 30e6 f6e8 0cda 0e00 bcef eb16 10d1 1cfb
00000050: 042f 5f37 2406 ddbe e0f1 20e2 ecda a33f
00000060: 50df eb16 f4d3 010e 09fe ec4b 294b 157f
00000070: d55f 240b e4d3 1508 36dc 1838 1347 2311
00000080: 25fb 280b 0740 fb0a dc01 f1e2 f5f5 fc0e
00000090: 0b00 fbde f216 d0df ea03 f71a e4c5 30f3
000000a0: fbee 23fb e781 051f 1efd 170e 1d05 14d9
000000b0: e334 03e7 1542 ef06 fc11 0302 04e9 e80a
000000c0: 02e2 e0fb dd1f 1c1c efd4 19e7 edfb c1f7
000000d0: 04da f9dd c77f bcd2 dce5 fb5c 3cde 322d
000000e0: 18c7 5314 bbc9 e1fe f50e cf1f 0317 1220
000000f0: 0126 c1cf fc0c 23ce 1205 16de f4e6 ef08
-35 8 95 6 -4 -17 31 19
43 47 -23 6 -37 84 -1 -43
-20 29 127 -48 -96 36 12 73
-67 -43 -54 19 35 -116 15 42
-23 42 12 77 -40 53 -28 52
-50 -37 -28 86 -15 5 12 -23
9 46 47 2 -42 -20 62 -7
67 44 -109 4 -31 -9 42 -38
48 -26 -10 -24 12 -38 14 0
-68 -17 -21 22 16 -47 28 -5
4 47 95 55 36 6 -35 -66
-32 -15 32 -30 -20 -38 -93 63
80 -33 -21 22 -12 -45 1 14
9 -2 -20 75 41 75 21 127
-43 95 36 11 -28 -45 21 8
54 -36 24 56 19 71 35 17
37 -5 40 11 7 64 -5 10
-36 1 -15 -30 -11 -11 -4 14
11 0 -5 -34 -14 22 -48 -33
-22 3 -9 26 -28 -59 48 -13
-5 -18 35 -5 -25 -127 5 31
30 -3 23 14 29 5 20 -39
-29 52 3 -25 21 66 -17 6
-4 17 3 2 4 -23 -24 10
2 -30 -32 -5 -35 31 28 28
-17 -44 25 -25 -19 -5 -63 -9
4 -38 -7 -35 -57 127 -68 -46
-36 -27 -5 92 60 -34 50 45
24 -57 83 20 -69 -55 -31 -2
-11 14 -49 31 3 23 18 32
1 38 -63 -49 -4 12 35 -50
18 5 22 -34 -12 -26 -17 8

tfl.pseudo_qconst9 i1 [1, 1, 3, 64]
00000000: f926 a67f 8f3b 81ba a2d4 c57f 9cc9 7d37
00000010: ac81 d3c7 c424 7f7f 0d22 8140 81e8 4515
00000020: 7f7f 49ec e638 81a1 7f81 7f81 8148 ca67
00000030: 8d81 a68d 5d21 d0b2 eb32 3b7f d681 7f81
00000040: 817f 8165 1d09 f081 0bc5 bc23 ae81 7f78
00000050: 81e0 9e3d 0ce1 6102 7f7f e9e2 c43a e681
00000060: 282d afac 3148 cad9 27a3 41bf cc7f c5cf
00000070: 8184 e2cc 7fe6 812a 33e5 7f4e 81e2 18ad
00000080: 977c f61d 7f81 708c 7f81 81b3 819b 0c7f
00000090: f260 817f 7f81 0bc4 676f 3281 7e7f 81cc
000000a0: cc0d 8181 7f7f ed81 d82d 4242 20f9 8181
000000b0: b113 7f7f 6281 907f 7f81 6da9 f453 8cf2
-7 38 -90 127 -113 59 -127 -70
-94 -44 -59 127 -100 -55 125 55
-84 -127 -45 -57 -60 36 127 127
13 34 -127 64 -127 -24 69 21
127 127 73 -20 -26 56 -127 -95
127 -127 127 -127 -127 72 -54 103
-115 -127 -90 -115 93 33 -48 -78
-21 50 59 127 -42 -127 127 -127
-127 127 -127 101 29 9 -16 -127
11 -59 -68 35 -82 -127 127 120
-127 -32 -98 61 12 -31 97 2
127 127 -23 -30 -60 58 -26 -127
40 45 -81 -84 49 72 -54 -39
39 -93 65 -65 -52 127 -59 -49
-127 -124 -30 -52 127 -26 -127 42
51 -27 127 78 -127 -30 24 -83
-105 124 -10 29 127 -127 112 -116
127 -127 -127 -77 -127 -101 12 127
-14 96 -127 127 127 -127 11 -60
103 111 50 -127 126 127 -127 -52
-52 13 -127 -127 127 127 -19 -127
-40 45 66 66 32 -7 -127 -127
-79 19 127 127 98 -127 -112 127
127 -127 109 -87 -12 83 -116 -14

tfl.pseudo_qconst10 i1 [64] scale=0.008567488 zero_point=127
00000000: 5461 5753 3338 2d32 064a 5c08 435d 593f
00000010: 4501 461d 2c51 122c 5665 304c 3236 22ec
00000020: 0e45 5146 2969 5455 294a 5444 453b 5bfa
00000030: 4359 150b 4241 5927 8036 6043 6338 4414
-0.36840197 -0.25702465 -0.34269953 -0.37696946 -0.65112907 -0.6082916 -0.702534 -0.6596966
-1.036666 -0.45407686 -0.2998621 -1.019531 -0.5140493 -0.29129457 -0.32556453 -0.5483192
-0.4969143 -1.0795034 -0.48834682 -0.8396138 -0.7111015 -0.39410445 -0.9338562 -0.7111015
-0.351267 -0.22275469 -0.67683154 -0.4369419 -0.6596966 -0.6254266 -0.79677635 -1.2594208
-0.9681261 -0.4969143 -0.39410445 -0.48834682 -0.73680395 -0.18848473 -0.36840197 -0.3598345
-0.73680395 -0.45407686 -0.36840197 -0.5054818 -0.4969143 -0.58258915 -0.30842957 -1.1394758
-0.5140493 -0.32556453 -0.9081537 -0.9938286 -0.52261674 -0.53118426 -0.32556453 -0.7539389
-2.1847093 -0.6254266 -0.26559213 -0.5140493 -0.23988965 -0.6082916 -0.5054818 -0.9167212

tfl.pseudo_qconst11 i1 [64] scale=0.04841839 zero_point=-128
00000000: f8ff 07f2 ecef ec09 daf4 17d0 d90e 36e8
00000010: ebd6 e8e4 dae8 cb00 39e8 20e3 ee08 deca
00000020: dee4 6ad9 ff7f 0e4f ee5f f8de 00ed ecea
00000030: 3d1e c8d0 f5f1 12fd bebe d05e f1c5 78ce
5.810207 6.1491356 6.536483 5.5196967 5.229186 5.3744416 5.229186 6.63332
4.357655 5.6165333 7.3111773 3.8734713 4.309237 6.8754115 8.812147 5.035513
5.180768 4.1639814 5.035513 4.8418393 4.357655 5.035513 3.6313794 6.197554
8.957402 5.035513 7.7469425 4.793421 5.326023 6.5849013 4.5513287 3.582961
4.5513287 4.8418393 11.329904 4.309237 6.1491356 12.34669 6.8754115 10.022607
5.326023 10.797301 5.810207 4.5513287 6.197554 5.2776046 5.229186 5.1323495
9.151076 7.650106 3.4861243 3.8734713 5.664952 5.471278 7.069085 6.052299
3.0019403 3.0019403 3.8734713 10.748883 5.471278 3.340869 12.007761 3.7766345

tfl.pseudo_qconst13 i1 [64, 1, 1, 32]
00000000: ee1e 3d4b e245 aae9 62e7 f6af 9aa2 f741
00000010: bebd 950e 2cea fc0a b67f 1ce9 b3c2 c6f3
00000020: c944 8c05 d9ce 1edc cb19 17f6 4c00 001b
00000030: dd24 e668 2dfa af0e 7fbd 0f01 df2d d453
00000040: d552 22eb 913f f2bb 3d26 e4fd 71cf f932
00000050: 04cc 1f85 7f37 f94b 15c7 ced4 5e42 fb2b
00000060: 15c6 b6e2 b0dd 48dd 44d1 c2f7 e87f 2a31
00000070: c8e4 2427 cfd6 3cfd d8d2 3b65 c3fe fd59
00000080: 5fe6 d11e f22f fbed b038 7f28 d72d 0da3
00000090: e2b5 43c4 0cd2 531e 19cc a4e6 b54b eac7
000000a0: fed0 d33b 004b 397f faf5 45af 2305 09fc
000000b0: d957 d813 0cfb f9fc 9ede ac00 4a21 3801
000000c0: 38f2 f90b 3ab8 e9e8 0e32 0b14 06f6 eae9
000000d0: e041 0a18 bb01 ee18 f1b4 087f 4904 ec0f
000000e0: fa0c e909 30e7 6f14 ec1b 08e5 b9fc d9e8
000000f0: 37b6 f63c 0181 49ff bad2 da62 44ba f4e7
-18 30 61 75 -30 69 -86 -23
98 -25 -10 -81 -102 -94 -9 65
-66 -67 -107 14 44 -22 -4 10
-74 127 28 -23 -77 -62 -58 -13
-55 68 -116 5 -39 -50 30 -36
-53 25 23 -10 76 0 0 27
-35 36 -26 104 45 -6 -81 14
127 -67 15 1 -33 45 -44 83
-43 82 34 -21 -111 63 -14 -69
61 38 -28 -3 113 -49 -7 50
4 -52 31 -123 127 55 -7 75
21 -57 -50 -44 94 66 -5 43
21 -58 -74 -30 -80 -35 72 -35
68 -47 -62 -9 -24 127 42 49
-56 -28 36 39 -49 -42 60 -3
-40 -46 59 101 -61 -2 -3 89
95 -26 -47 30 -14 47 -5 -19
-80 56 127 40 -41 45 13 -93
-30 -75 67 -60 12 -46 83 30
25 -52 -92 -26 -75 75 -22 -57
-2 -48 -45 59 0 75 57 127
-6 -11 69 -81 35 5 9 -4
-39 87 -40 19 12 -5 -7 -4
-98 -34 -84 0 74 33 56 1
56 -14 -7 11 58 -72 -23 -24
14 50 11 20 6 -10 -22 -23
-32 65 10 24 -69 1 -18 24
-15 -76 8 127 73 4 -20 15
-6 12 -23 9 48 -25 111 20
-20 27 8 -27 -71 -4 -39 -24
55 -74 -10 60 1 -127 73 -1
-70 -46 -38 98 68 -70 -12 -25

tfl.pseudo_qconst15 i1 [1, 1, 3, 32]
00000000: d67f 477f 45b6 7f6a 81ef 81d8 327f 4e7f
00000010: a309 78f5 1a74 921d cb7f 0fc3 7fc6 f881
00000020: 81e0 7f3a b781 033e ab81 cc8f 6b6b d660
00000030: 81aa e081 a7bd 817f d36b 8181 5f81 0aa8
00000040: b191 7fae 81aa fc81 239c 5981 7f44 8166
00000050: c681 7fd9 8181 e255 814c bdd3 03f3 7f44
-42 127 71 127 69 -74 127 106
-127 -17 -127 -40 50 127 78 127
-93 9 120 -11 26 116 -110 29
-53 127 15 -61 127 -58 -8 -127
-127 -32 127 58 -73 -127 3 62
-85 -127 -52 -113 107 107 -42 96
-127 -86 -32 -127 -89 -67 -127 127
-45 107 -127 -127 95 -127 10 -88
-79 -111 127 -82 -127 -86 -4 -127
35 -100 89 -127 127 68 -127 102
-58 -127 127 -39 -127 -127 -30 85
-127 76 -67 -45 3 -13 127 68

tfl.pseudo_qconst16 i1 [32] scale=0.0048717456 zero_point=127
00000000: e969 16f6 0efc b530 31d6 d5c3 3af4 c6d5
00000010: 11d0 2ab6 1780 eee2 050b bd1c da2e e34b
-0.7307618 -0.107178405 -0.51153326 -0.66742915 -0.55050725 -0.6381987 -0.9840926 -0.3848679
-0.37999615 -0.823325 -0.82819676 -0.9158882 -0.33615044 -0.67717266 -0.90127295 -0.82819676
-0.535892 -0.85255545 -0.41409838 -0.97922087 -0.50666153 -1.2422951 -0.70640314 -0.7648641
-0.59435296 -0.5651225 -0.94511867 -0.4823028 -0.803838 -0.3946114 -0.7599923 -0.25333077

tfl.pseudo_qconst17 i1 [32] scale=0.007080943 zero_point=-128
00000000: 4dfb 2b26 5d29 3376 253c 226c 4e65 2f3e
00000010: f748 2c5d 4429 4450 193c ed40 457f 78ed
1.4515933 0.87095594 1.2108412 1.1754365 1.5648884 1.1966794 1.2674887 1.7419119
1.1683556 1.3312173 1.1471127 1.6711025 1.4586742 1.6215359 1.239165 1.3453791
0.8426322 1.4161886 1.2179222 1.5648884 1.3878648 1.1966794 1.3878648 1.4728361
1.0833843 1.3312173 0.77182275 1.359541 1.3949457 1.8056405 1.7560738 0.77182275

tfl.pseudo_qconst19 i1 [32, 1, 3, 13]
00000000: 08aa 1daf 102b 4017 58db ebf2 0f0c 8139
00000010: e4ce 320a 3dd2 2d0b 45f3 12fb 3d3e 5800
00000020: e1cf f109 e89a 237e fcca f208 e8c7 b516
00000030: 3f11 dc0d 58e6 d30f 002c c6d2 17fd 130e
00000040: eb7f f2ef c821 fdea 0e1d 0219 f1e9 d7fd
00000050: fef0 f5f9 f7fe dbf2 fe00 02e0 6eef 0bef
00000060: 0302 f6eb f717 fa11 0f7f e2d2 08f4 05ef
00000070: 130b 0009 075d 819a 0de6 1afa 3fdc ebfc
00000080: 2024 5bc3 b62f 13f9 0203 d8e1 bee4 f534
00000090: 5508 17f0 1ec8 f0f2 dcca e41e ce07 47e0
000000a0: 8cd9 0a1f 0de9 d4db 03d5 73cc e8db b704
000000b0: 561b 86ca 2701 6cb6 2c56 81e8 282a 26cc
000000c0: a303 363f bf27 bb68 fa14 e3da 10fe a5d2
000000d0: faf1 b310 2822 d541 bedd cd81 c41f 5496
000000e0: 2c07 481a d44c 1192 8ccf c426 ed05 12ed
000000f0: e6d9 32d7 3be5 0294 b0ff e605 e728 140b
8 -86 29 -81 16 43 64 23
88 -37 -21 -14 15 12 -127 57
-28 -50 50 10 61 -46 45 11
69 -13 18 -5 61 62 88 0
-31 -49 -15 9 -24 -102 35 126
-4 -54 -14 8 -24 -57 -75 22
63 17 -36 13 88 -26 -45 15
0 44 -58 -46 23 -3 19 14
-21 127 -14 -17 -56 33 -3 -22
14 29 2 25 -15 -23 -41 -3
-2 -16 -11 -7 -9 -2 -37 -14
-2 0 2 -32 110 -17 11 -17
3 2 -10 -21 -9 23 -6 17
15 127 -30 -46 8 -12 5 -17
19 11 0 9 7 93 -127 -102
13 -26 26 -6 63 -36 -21 -4
32 36 91 -61 -74 47 19 -7
2 3 -40 -31 -66 -28 -11 52
85 8 23 -16 30 -56 -16 -14
-36 -54 -28 30 -50 7 71 -32
-116 -39 10 31 13 -23 -44 -37
3 -43 115 -52 -24 -37 -73 4
86 27 -122 -54 39 1 108 -74
44 86 -127 -24 40 42 38 -52
-93 3 54 63 -65 39 -69 104
-6 20 -29 -38 16 -2 -91 -46
-6 -15 -77 16 40 34 -43 65
-66 -35 -51 -127 -60 31 84 -106
44 7 72 26 -44 76 17 -110
-116 -49 -60 38 -19 5 18 -19
-26 -39 50 -41 59 -27 2 -108
-80 -1 -26 5 -25 40 20 11
