models/model2.tflite (tflite, 27400 bytes, 13 tensors)

tfl.pseudo_qconst1 i1 [10, 64]
000000 29 1f d0 28 2a 8d f3 bf dc be 31 19 f5 db c5 ac
       41 31 -48 40 42 -115 -13 -65 -36 -66 49 25 -11 -37 -59 -84
000010 39 35 ca 13 93 c3 29 a5 ac 9f c0 ab ca 9a 93 d3
       57 53 -54 19 -109 -61 41 -91 -84 -97 -64 -85 -54 -102 -109 -45
000020 81 2b 26 cf cc a6 18 fb 33 2a 1c 06 2e c8 34 c0
       -127 43 38 -49 -52 -90 24 -5 51 42 28 6 46 -56 52 -64
000030 81 e1 d2 c5 1e b0 24 ba 0b 21 1c a9 28 2e 93 27
       -127 -31 -46 -59 30 -80 36 -70 11 33 28 -87 40 46 -109 39
000040 22 a8 ef 2a 25 a1 f3 f6 09 d3 38 0f e8 13 9f 36
       34 -88 -17 42 37 -95 -13 -10 9 -45 56 15 -24 19 -97 54
000050 e1 c9 f8 e1 e5 01 34 8a d3 c6 29 df ef 15 15 e1
       -31 -55 -8 -31 -27 1 52 -118 -45 -58 41 -33 -17 21 21 -31
000060 b9 28 15 bc f8 81 e0 b8 dd bd e0 24 b0 15 30 cf
       -71 40 21 -68 -8 -127 -32 -72 -35 -67 -32 36 -80 21 48 -49
000070 36 c0 cd 27 a4 2f 1f d7 b3 c0 ab 2a d8 c2 2b 2c
       54 -64 -51 39 -92 47 31 -41 -77 -64 -85 42 -40 -62 43 44
000080 e6 e6 b6 2a 86 2a 34 39 8b 31 b6 d5 1f be 25 bb
       -26 -26 -74 42 -122 42 52 57 -117 49 -74 -43 31 -66 37 -69
000090 bb dd d5 29 fd bf b4 21 25 2c 92 c3 21 14 0c be
       -69 -35 -43 41 -3 -65 -76 33 37 44 -110 -61 33 20 12 -66
0000a0 29 eb eb de 30 28 25 cd c4 fc 84 a1 df 1e c6 d4
       41 -21 -21 -34 48 40 37 -51 -60 -4 -124 -95 -33 30 -58 -44
0000b0 f4 c4 ac 24 0d 30 81 ea 05 b8 fa e5 d7 de 2c f9
       -12 -60 -84 36 13 48 -127 -22 5 -72 -6 -27 -41 -34 44 -7
0000c0 26 10 42 20 2a c5 a9 0b f0 da d7 8c 29 c3 bc 37
       38 16 66 32 42 -59 -87 11 -16 -38 -41 -116 41 -61 -68 55
0000d0 ee c9 cb 24 df c5 c7 d0 e5 26 29 bd 37 10 19 e7
       -18 -55 -53 36 -33 -59 -57 -48 -27 38 41 -67 55 16 25 -25
0000e0 e7 d6 d3 ab c3 c9 c9 cf 38 ce ff 27 b4 17 0e da
       -25 -42 -45 -85 -61 -55 -55 -49 56 -50 -1 39 -76 23 14 -38
0000f0 33 42 2f b4 b7 bf 25 2b 36 be a2 2c 81 32 05 11
       51 66 47 -76 -73 -65 37 43 54 -66 -94 44 -127 50 5 17

tfl.pseudo_qconst3 i1 [64, 64]
000000 d9 fa d5 cf ea f6 81 2c c4 f3 da 2f 10 22 42 20
       -39 -6 -43 -49 -22 -10 -127 44 -60 -13 -38 47 16 34 66 32
000010 ec 10 b8 1d e5 61 6c dc ef fa 18 07 02 21 5d c9
       -20 16 -72 29 -27 97 108 -36 -17 -6 24 7 2 33 93 -55
000020 c9 50 f7 9c 38 08 2f ff 27 01 d8 17 f4 2b 2f 1b
       -55 80 -9 -100 56 8 47 -1 39 1 -40 23 -12 43 47 27
000030 3e 26 fe 33 f1 ff 27 e9 01 c2 14 d3 f0 cf 13 4c
       62 38 -2 51 -15 -1 39 -23 1 -62 20 -45 -16 -49 19 76
000040 1b fd b3 f2 f5 04 d4 f7 1a d2 33 08 bc 22 65 03
       27 -3 -77 -14 -11 4 -44 -9 26 -46 51 8 -68 34 101 3
000050 2a f6 ac 02 1f 53 d1 1c b0 38 03 63 e4 d6 5c ee
       42 -10 -84 2 31 83 -47 28 -80 56 3 99 -28 -42 92 -18
000060 10 f5 03 a2 c4 17 fe f4 2d ca 81 e4 65 04 b2 48
       16 -11 3 -94 -60 23 -2 -12 45 -54 -127 -28 101 4 -78 72
000070 70 25 1b b8 b2 25 1d 10 ac 11 e9 24 1d 40 09 1a
       112 37 27 -72 -78 37 29 16 -84 17 -23 36 29 64 9 26
000080 cf 97 49 01 c5 46 09 53 e8 d7 09 12 d1 0b 5a ab
       -49 -105 73 1 -59 70 9 83 -24 -41 9 18 -47 11 90 -85
000090 e3 ed 07 8e 3f 2f af 40 ff aa 22 ef e4 e8 1c ab
       -29 -19 7 -114 63 47 -81 64 -1 -86 34 -17 -28 -24 28 -85
0000a0 49 d9 e9 47 10 bd f6 0f bc 10 1a f3 06 e3 2f df
       73 -39 -23 71 16 -67 -10 15 -68 16 26 -13 6 -29 47 -33
0000b0 2c 93 02 29 f5 bc 81 21 16 f3 fd f4 c3 2a 32 ce
       44 -109 2 41 -11 -68 -127 33 22 -13 -3 -12 -61 42 50 -50
0000c0 da 16 b1 1a c0 41 c3 8b ae fb 37 3a 8f 04 13 e6
       -38 22 -79 26 -64 65 -61 -117 -82 -5 55 58 -113 4 19 -26
0000d0 32 1e fd cf 39 49 67 81 3b 40 4e 71 60 b8 45 3c
       50 30 -3 -49 57 73 103 -127 59 64 78 113 96 -72 69 60
0000e0 0d e3 bd 05 ff aa e3 a1 29 28 e8 31 0c 1b 31 dd
       13 -29 -67 5 -1 -86 -29 -95 41 40 -24 49 12 27 49 -35
0000f0 21 e5 23 19 4b 09 15 d4 f3 fc 3b a7 37 28 00 c1
       33 -27 35 25 75 9 21 -44 -13 -4 59 -89 55 40 0 -63

tfl.pseudo_qconst4 i1 [64] scale=0.0069735656 zero_point=127
000000 4d 67 2c ff 65 41 4e 53 3d 62 b6 5c 34 51 3f 49
       -0.3486783 -0.16736558 -0.5788059 -0.8926164 -0.18131271 -0.43236107 -0.34170473 -0.30683687 -0.46025532 -0.2022334 -1.4016867 -0.24407479 -0.5230174 -0.320784 -0.4463082 -0.37657255
000010 3d f5 0c 52 ff 58 55 4d 35 e9 3a 41 49 ea 4c 2f
       -0.46025532 -0.96235204 -0.80196005 -0.31381044 -0.8926164 -0.27196905 -0.29288974 -0.3486783 -0.51604384 -1.0460348 -0.48117602 -0.43236107 -0.37657255 -1.0390613 -0.35565186 -0.5578852
000020 1f 56 48 54 80 09 38 23 45 36 3f 54 52 3d e1 15
       -0.6694623 -0.28591618 -0.3835461 -0.2998633 -1.7782592 -0.82288074 -0.49512315 -0.641568 -0.4044668 -0.5090703 -0.4463082 -0.2998633 -0.31381044 -0.46025532 -1.1018233 -0.73919797
000030 4f 35 21 4d 3d 0f 3e f5 4d 8a e4 4d 13 5c 38 2b
       -0.33473116 -0.51604384 -0.65551513 -0.3486783 -0.46025532 -0.78103936 -0.45328176 -0.96235204 -0.3486783 -1.7085235 -1.0809027 -0.3486783 -0.7531451 -0.24407479 -0.49512315 -0.5857795

tfl.pseudo_qconst5 i1 [64] scale=0.07765587 zero_point=-128
000000 e0 7f bb be 3c c8 38 5f d7 42 bc 0a fb df eb e4
       7.454963 19.802246 4.581696 4.814664 14.599303 5.5912223 14.288679 17.317259 6.7560606 15.065238 4.659352 10.71651 9.551672 7.3773074 8.309177 7.765587
000010 f4 b5 b1 bf b0 d1 e9 15 f0 b1 1e ce e0 b7 f7 bf
       9.0080805 4.115761 3.8051374 4.8923197 3.7274816 6.2901254 8.153866 11.5707245 8.697457 3.8051374 12.269627 6.0571575 7.454963 4.271073 9.241048 4.8923197
000020 c9 16 22 02 b4 b7 c7 ba d3 fb f5 08 31 e3 ad cc
       5.668878 11.64838 12.580251 10.095263 4.038105 4.271073 5.5135665 4.5040402 6.445437 9.551672 9.085736 10.561198 13.745089 7.6879306 3.494514 5.901846
000030 e7 c5 c2 e9 db bb cd b2 dd b3 af eb ba 2c cf c3
       7.998554 5.358255 5.125287 8.153866 7.066684 4.581696 5.9795017 3.8827934 7.221996 3.9604492 3.6498258 8.309177 4.5040402 13.356809 6.1348133 5.202943

tfl.pseudo_qconst7 i1 [64, 1, 1, 32]
000000 e5 fc f0 ac 2c 0a 03 ed e6 ec fb f6 fe f5 10 1d
       -27 -4 -16 -84 44 10 3 -19 -26 -20 -5 -10 -2 -11 16 29
000010 f5 1a e4 12 d5 2e f1 e5 f4 03 2b 81 b9 0a 18 c6
       -11 26 -28 18 -43 46 -15 -27 -12 3 43 -127 -71 10 24 -58
000020 77 50 4d 02 34 9e 10 71 ff 4c 0d 01 ac 46 06 02
       119 80 77 2 52 -98 16 113 -1 76 13 1 -84 70 6 2
000030 f8 34 d7 16 ec 25 15 81 3d 0f a3 d9 22 f9 39 f4
       -8 52 -41 22 -20 37 21 -127 61 15 -93 -39 34 -7 57 -12
000040 1b 31 09 30 be 3c 0d 30 a5 05 1d 3c 26 dc 48 fc
       27 49 9 48 -66 60 13 48 -91 5 29 60 38 -36 72 -4
000050 af d2 9b dc 1c a2 a6 1a e3 fc 3b 51 65 38 7f 48
       -81 -46 -101 -36 28 -94 -90 26 -29 -4 59 81 101 56 127 72
000060 f9 fc f7 12 12 16 7f 00 11 e3 04 e0 dd fb f3 ff
       -7 -4 -9 18 18 22 127 0 17 -29 4 -32 -35 -5 -13 -1
000070 0e ea ef 58 de fc 1f 12 fb f4 0f 10 15 e3 37 38
       14 -22 -17 88 -34 -4 31 18 -5 -12 15 16 21 -29 55 56
000080 b6 3e f1 d2 cc fa e0 f5 4f ce 44 00 0f 3d 16 f0
       -74 62 -15 -46 -52 -6 -32 -11 79 -50 68 0 15 61 22 -16
000090 b5 f4 f5 f6 43 ea f7 e7 7f 2e be e0 14 11 21 48
       -75 -12 -11 -10 67 -22 -9 -25 127 46 -66 -32 20 17 33 72
0000a0 07 02 04 c9 0b 38 ff d3 f2 f4 85 b5 fb a5 0f 4c
       7 2 4 -55 11 56 -1 -45 -14 -12 -123 -75 -5 -91 15 76
0000b0 7f 05 d7 45 bc a8 06 c7 34 15 e9 2b fc 11 58 23
       127 5 -41 69 -68 -88 6 -57 52 21 -23 43 -4 17 88 35
0000c0 11 2f da 11 02 fb 0b 09 eb d1 ec e8 94 f9 f3 fe
       17 47 -38 17 2 -5 11 9 -21 -47 -20 -24 -108 -7 -13 -2
0000d0 19 15 1b 27 c9 e5 7f e3 e8 ef ff 09 99 c4 ff 06
       25 21 27 39 -55 -27 127 -29 -24 -17 -1 9 -103 -60 -1 6
0000e0 59 54 f0 e1 ae 7f 1e 39 ef f8 0c 03 c5 dc ee 11
       89 84 -16 -31 -82 127 30 57 -17 -8 12 3 -59 -36 -18 17
0000f0 d4 13 e2 4a 4c 0f ee ff c0 10 3b 11 12 fa 0c 3f
       -44 19 -30 74 76 15 -18 -1 -64 16 59 17 18 -6 12 63

tfl.pseudo_qconst9 i1 [1, 1, 3, 32]
000000 ec 95 7f 54 81 0f f7 81 eb 53 35 7f 6b fe 7f c7
       -20 -107 127 84 -127 15 -9 -127 -21 83 53 127 107 -2 127 -57
000010 81 eb 31 d6 c2 7f e2 42 dc eb c2 de 7f 75 63 e5
       -127 -21 49 -42 -62 127 -30 66 -36 -21 -62 -34 127 117 99 -27
000020 81 81 e4 7f 4a dd 81 d3 e7 81 b3 40 7f 51 48 7f
       -127 -127 -28 127 74 -35 -127 -45 -25 -127 -77 64 127 81 72 127
000030 cc 81 f4 81 ef 9d 81 6f 68 7f e4 9c ec 7f fb 81
       -52 -127 -12 -127 -17 -99 -127 111 104 127 -28 -100 -20 127 -5 -127
000040 a9 8a 96 04 67 81 f9 e6 7f a6 81 96 14 7f a6 7f
       -87 -118 -106 4 103 -127 -7 -26 127 -90 -127 -106 20 127 -90 127
000050 39 ca 81 e5 7f a6 ce 7f 7f f5 7f 7f ea e1 81 d8
       57 -54 -127 -27 127 -90 -50 127 127 -11 127 127 -22 -31 -127 -40

tfl.pseudo_qconst10 i1 [32] scale=0.009347814 zero_point=127
000000 52 67 32 38 25 5a 45 35 ea 80 31 39 62 40 49 18
       -0.42065164 -0.22434753 -0.7197817 -0.6636948 -0.8413033 -0.34586912 -0.5421732 -0.69173825 -1.3928243 -2.3836925 -0.7291295 -0.654347 -0.2710866 -0.5889123 -0.50478196 -0.9628249
000010 31 4a 03 31 c9 e7 58 3c f0 47 10 27 53 4d 26 33
       -0.7291295 -0.49543414 -1.1591289 -0.7291295 -1.7013022 -1.4208678 -0.36456475 -0.62630355 -1.3367374 -0.5234776 -1.0376073 -0.82260764 -0.41130382 -0.46739072 -0.83195543 -0.7104339

tfl.pseudo_qconst11 i1 [32] scale=0.034800027 zero_point=-128
000000 f3 53 cc 1d d8 d3 11 0f c7 cb ea ce d9 ec 1f d9
       4.002003 7.3428054 2.644802 5.463604 3.0624022 2.8884022 5.046004 4.9764037 2.4708018 2.610002 3.6888027 2.714402 3.0972023 3.7584028 5.533204 3.0972023
000010 cf e4 c3 e0 ca d2 d6 fb d1 7f d1 e6 ca ec c6 f0
       2.749202 3.4800026 2.3316019 3.3408027 2.575202 2.8536022 2.9928024 4.280403 2.818802 8.874007 2.818802 3.5496027 2.575202 3.7584028 2.4360018 3.897603

tfl.pseudo_qconst13 i1 [32, 1, 1, 16]
000000 f5 f6 fb 1f 31 7f 3b e4 1d 3e ca d3 1e 9d c9 df
       -11 -10 -5 31 49 127 59 -28 29 62 -54 -45 30 -99 -55 -33
000010 b9 f1 11 0a 1d 33 18 81 25 14 2d 09 f4 cf e9 37
       -71 -15 17 10 29 51 24 -127 37 20 45 9 -12 -49 -23 55
000020 0f f5 7f e0 92 de 6e f3 06 f5 e1 06 56 26 b3 43
       15 -11 127 -32 -110 -34 110 -13 6 -11 -31 6 86 38 -77 67
000030 02 88 bc 11 7f 19 f4 f9 dd d1 fd 90 51 30 b6 05
       2 -120 -68 17 127 25 -12 -7 -35 -47 -3 -112 81 48 -74 5
000040 b4 d0 7f 28 23 c0 15 f4 c1 1b 04 dc d6 60 26 f3
       -76 -48 127 40 35 -64 21 -12 -63 27 4 -36 -42 96 38 -13
000050 cc 7f 2c fc 54 14 1b 17 fe 3a d5 5d 09 0e 07 fd
       -52 127 44 -4 84 20 27 23 -2 58 -43 93 9 14 7 -3
000060 eb f1 21 68 3c b5 fc 81 d6 dd 1b df 05 11 ce 57
       -21 -15 33 104 60 -75 -4 -127 -42 -35 27 -33 5 17 -50 87
000070 da d3 aa 64 7f 05 37 e6 1e 25 e0 bc d7 0a d2 d9
       -38 -45 -86 100 127 5 55 -26 30 37 -32 -68 -41 10 -46 -39
000080 b8 83 19 c6 16 2a 04 cb b4 ba 8e 81 34 12 3c b4
       -72 -125 25 -58 22 42 4 -53 -76 -70 -114 -127 52 18 60 -76
000090 06 3b ca 38 f6 1e 1f 2a 4c 7f d3 e8 01 eb f8 d1
       6 59 -54 56 -10 30 31 42 76 127 -45 -24 1 -21 -8 -47
0000a0 c7 da 3d e0 fa 48 d7 e4 c6 34 02 4a b5 7f e0 36
       -57 -38 61 -32 -6 72 -41 -28 -58 52 2 74 -75 127 -32 54
0000b0 0a f5 00 81 f8 76 d5 1a e6 0c 35 e1 0f 0d be 03
       10 -11 0 -127 -8 118 -43 26 -26 12 53 -31 15 13 -66 3
0000c0 cc e7 58 2e 2d ea e8 30 7f f6 3a 18 37 f6 d1 4f
       -52 -25 88 46 45 -22 -24 48 127 -10 58 24 55 -10 -47 79
0000d0 1c 57 27 7f 09 ae 65 e4 1b d5 c4 fd 05 2e ee f3
       28 87 39 127 9 -82 101 -28 27 -43 -60 -3 5 46 -18 -13
0000e0 9b cd 65 d3 c7 30 17 81 3a da 04 57 1a 22 ed 12
       -101 -51 101 -45 -57 48 23 -127 58 -38 4 87 26 34 -19 18
0000f0 59 d4 ff 81 0a a7 22 09 f7 06 df 25 50 2d 0b f1
       89 -44 -1 -127 10 -89 34 9 -9 6 -33 37 80 45 11 -15

tfl.pseudo_qconst15 i1 [1, 1, 3, 16]
000000 04 a8 dc a1 d4 50 1f d7 fd 10 b7 b4 b7 e1 7f e8
       4 -88 -36 -95 -44 80 31 -41 -3 16 -73 -76 -73 -31 127 -24
000010 24 2c 69 81 81 b7 a7 79 20 52 81 81 81 95 6f 7f
       36 44 105 -127 -127 -73 -89 121 32 82 -127 -127 -127 -107 111 127
000020 7f 7f 7f 37 c0 81 81 7f 7f 7f 89 4c 99 81 21 74
       127 127 127 55 -64 -127 -127 127 127 127 -119 76 -103 -127 33 116

tfl.pseudo_qconst16 i1 [16] scale=0.0047355117 zero_point=127
000000 19 ab bc 56 24 df e9 c7 fd 1d cf f8 36 80 72 e9
       -0.48302218 -1.0039285 -0.9234248 -0.19415598 -0.43093157 -0.75768185 -0.71032673 -0.87133414 -0.6156165 -0.46408015 -0.8334501 -0.6392941 -0.34569237 -1.2075555 -0.06156165 -0.71032673

tfl.pseudo_qconst17 i1 [16] scale=0.0053515565 zero_point=-128
000000 21 26 12 2a 26 08 0e 30 0e 52 36 fd 7f 17 39 0f
       0.8616006 0.88835835 0.78132725 0.9097646 0.88835835 0.7278117 0.759921 0.9418739 0.759921 1.1238269 0.9739833 0.66894454 1.3646469 0.808085 0.9900379 0.76527256

tfl.pseudo_qconst19 i1 [16, 1, 3, 13]
000000 9f db 0b 43 6c dc fb 20 b3 1e d8 dd 0d 81 b3 45
       -97 -37 11 67 108 -36 -5 32 -77 30 -40 -35 13 -127 -77 69
000010 5a 5f db 08 1a ef 00 4b c2 06 98 a2 20 3b 0c f0
       90 95 -37 8 26 -17 0 75 -62 6 -104 -94 32 59 12 -16
000020 bc 01 4a f4 1e fa 02 1b c7 05 cd f9 1c 0a f8 f3
       -68 1 74 -12 30 -6 2 27 -57 5 -51 -7 28 10 -8 -13
000030 fd fb 13 ef 7f c9 fa ee 06 10 fe ec d0 0c f6 0a
       -3 -5 19 -17 127 -55 -6 -18 6 16 -2 -20 -48 12 -10 10
000040 ee 44 c0 dc 2e ed 15 e6 01 ed f7 0b ed f0 07 ad
       -18 68 -64 -36 46 -19 21 -26 1 -19 -9 11 -19 -16 7 -83
000050 48 3c e7 f2 d4 0b 04 35 0f 23 2c 7f c7 2a 3b e4
       72 60 -25 -14 -44 11 4 53 15 35 44 127 -57 42 59 -28
000060 aa ac e3 ee 1d 16 27 19 2e 12 f8 37 1b c6 c8 10
       -86 -84 -29 -18 29 22 39 25 46 18 -8 55 27 -58 -56 16
000070 26 fc 29 fe f1 58 0e 25 12 25 12 ef e4 0e 3f 05
       38 -4 41 -2 -15 88 14 37 18 37 18 -17 -28 14 63 5
000080 e4 f9 66 28 e2 f7 fb 1a e0 da 0b 46 23 07 d9 7f
       -28 -7 102 40 -30 -9 -5 26 -32 -38 11 70 35 7 -39 127
000090 2d de ea 01 2b f3 cc 11 30 32 ef e1 54 fb df cd
       45 -34 -22 1 43 -13 -52 17 48 50 -17 -31 84 -5 -33 -51
0000a0 da f6 0a 03 01 03 fd 05 f8 71 36 e6 e8 ed 00 0f
       -38 -10 10 3 1 3 -3 5 -8 113 54 -26 -24 -19 0 15
0000b0 0d 0c 01 f9 f8 07 7f 2e 13 18 ed 04 02 12 fc 03
       13 12 1 -7 -8 7 127 46 19 24 -19 4 2 18 -4 3
0000c0 f2 02 fc 5f 02 b9 0c f6 f0 ed 30 30 08 c8 f6 0f
       -14 2 -4 95 2 -71 12 -10 -16 -19 48 48 8 -56 -10 15
0000d0 7f 08 c0 e3 29 0e e9 e7 61 fb d6 cc 22 71 eb cd
       127 8 -64 -29 41 14 -23 -25 97 -5 -42 -52 34 113 -21 -51
0000e0 b2 01 06 fc 0e 2f 1a da fc 11 13 58 22 93 f0 2d
       -78 1 6 -4 14 47 26 -38 -4 17 19 88 34 -109 -16 45
0000f0 34 d8 9c e4 0f 6c 22 23 3e 05 81 0e ed 3e c1 ec
       52 -40 -100 -28 15 108 34 35 62 5 -127 14 -19 62 -63 -20
