models/model3.tflite (tflite, 16192 bytes, 12 tensors)

tfl.pseudo_qconst1 i1 [10, 32]
00000000: 260b 24c0 f6e7 e6e8 f2d2 c6e6 c60b e0f1
00000010: bfd8 e144 df0c 32d3 3236 1d1f 8141 033d
00000020: 3340 c6fc f1de e5e8 a0c1 35ca beda d6f4
00000030: 382e 53c3 cce3 1135 30da 0a0f 8123 bed3
00000040: b53b b1fe c97f 11ad 442e b14b 1f72 6bcf
00000050: 3b53 aecf dabf e268 f4f3 a99d 50be 44cc
00000060: 646e f53f 58d4 c460 00b6 645c a6ee d3d6
00000070: 46d1 7fa4 4779 7242 9ca9 8895 ecc9 b7d1
00000080: 1bd1 34af b0dc e5bc 99c1 8123 32e3 e467
00000090: c549 c53e cdda 42c0 4d36 52ea 2ae6 1ce9
000000a0: aabd ee41 49dc ddb4 9cce 3940 3ece ca7f
000000b0: b270 e954 b9bd 93d9 c800 f506 4141 574f
000000c0: d388 ce69 7ad4 7fc9 3929 3cfc 2ad7 74c1
000000d0: 2ca5 a6cd 596a 98f9 88ac 12b0 4b37 32f0
000000e0: 8b8b bb89 8cf7 7fce 2e3f 8e22 fc4f 70d1
000000f0: 3aa4 b50a 4c61 a75c 3a76 60a7 3b03 2747
38 11 36 -64 -10 -25 -26 -24
-14 -46 -58 -26 -58 11 -32 -15
-65 -40 -31 68 -33 12 50 -45
50 54 29 31 -127 65 3 61
51 64 -58 -4 -15 -34 -27 -24
-96 -63 53 -54 -66 -38 -42 -12
56 46 83 -61 -52 -29 17 53
48 -38 10 15 -127 35 -66 -45
-75 59 -79 -2 -55 127 17 -83
68 46 -79 75 31 114 107 -49
59 83 -82 -49 -38 -65 -30 104
-12 -13 -87 -99 80 -66 68 -52
100 110 -11 63 88 -44 -60 96
0 -74 100 92 -90 -18 -45 -42
70 -47 127 -92 71 121 114 66
-100 -87 -120 -107 -20 -55 -73 -47
27 -47 52 -81 -80 -36 -27 -68
-103 -63 -127 35 50 -29 -28 103
-59 73 -59 62 -51 -38 66 -64
77 54 82 -22 42 -26 28 -23
-86 -67 -18 65 73 -36 -35 -76
-100 -50 57 64 62 -50 -54 127
-78 112 -23 84 -71 -67 -109 -39
-56 0 -11 6 65 65 87 79
-45 -120 -50 105 122 -44 127 -55
57 41 60 -4 42 -41 116 -63
44 -91 -90 -51 89 106 -104 -7
-120 -84 18 -80 75 55 50 -16
-117 -117 -69 -119 -116 -9 127 -50
46 63 -114 34 -4 79 112 -47
58 -92 -75 10 76 97 -89 92
58 118 96 -89 59 3 39 71

tfl.pseudo_qconst2 i1 [32] scale=0.016417189 zero_point=127
00000000: 6665 9860 6d88 56ea 6780 691a d69a 595e
00000010: 695d 6764 565d 6353 5762 6a41 6567 1b24
-0.41042972 -0.4268469 -3.7923706 -0.5089328 -0.2955094 -4.0550456 -0.6731047 -2.446161
-0.3940125 -4.1863832 -0.36117816 -1.658136 -2.774505 -3.7595363 -0.62385315 -0.54176724
-0.36117816 -0.5581844 -0.3940125 -0.4432641 -0.6731047 -0.5581844 -0.45968127 -0.7223563
-0.65668756 -0.47609848 -0.34476095 -1.0178657 -0.4268469 -0.3940125 -1.6417189 -1.4939642

tfl.pseudo_qconst3 i1 [32] scale=0.073246114 zero_point=-128
00000000: 0df6 c7e3 1ac6 0be2 30d7 00cc c8d4 4803
00000010: d5e9 7f13 f417 1aff ddfa 12e4 db04 c7d4
10.3277025 8.643042 5.2004743 7.251365 11.2799015 5.127228 10.18121 7.178119
12.891316 6.3724117 9.375503 5.5667048 5.2737203 6.1526737 14.649222 9.595241
6.2259197 7.690842 18.67776 10.767179 8.49655 11.0601635 11.2799015 9.302257
6.8118887 8.936026 10.693933 7.324611 6.665396 9.668487 5.2004743 6.1526737

tfl.pseudo_qconst5 i1 [32, 1, 1, 16]
00000000: ca31 ebe8 2d7f b5fb b619 f0ef cb2a 2eba
00000010: d54d 0179 cd5b f081 81f8 9f59 4ed6 fe18
00000020: 7fe4 f7ff 0533 f3da 059b 3de1 2486 faed
00000030: 2fff 1ad8 9cf1 310f fd26 ca7f 1b03 ddd8
00000040: 1927 f7af 8f07 281a 2d50 c37f feeb eaeb
00000050: 3c07 7f05 f5c1 f8f7 fdf5 38fe 1714 fae9
00000060: dd59 2fbf 16b2 cbd1 2d03 e699 0c20 f47f
00000070: 4adc 3e14 1181 a410 45db 00ef 3ec7 2e1c
00000080: dc34 7f16 00cb 0bcf ef01 f6eb 1b0d f4fa
00000090: cfde 67eb f581 e2f7 0cbd 06f2 ed17 c0ee
000000a0: d726 f4b3 8110 2019 032d d755 0c1e 13e7
000000b0: 16ec 4908 f70f dd22 c9e7 d836 8107 4c00
000000c0: 33f0 efef f8ef 2c03 21e0 040f f3e0 81ee
000000d0: 4308 3607 f2f2 81f1 fda2 1fe2 2a1c f5f9
000000e0: ca42 49ce 0581 b7b0 f3e2 2acf 3d1a be5d
000000f0: bbe5 ddc5 a61f 06ea 6e0e 15dd 2a81 c2f4
-54 49 -21 -24 45 127 -75 -5
-74 25 -16 -17 -53 42 46 -70
-43 77 1 121 -51 91 -16 -127
-127 -8 -97 89 78 -42 -2 24
127 -28 -9 -1 5 51 -13 -38
5 -101 61 -31 36 -122 -6 -19
47 -1 26 -40 -100 -15 49 15
-3 38 -54 127 27 3 -35 -40
25 39 -9 -81 -113 7 40 26
45 80 -61 127 -2 -21 -22 -21
60 7 127 5 -11 -63 -8 -9
-3 -11 56 -2 23 20 -6 -23
-35 89 47 -65 22 -78 -53 -47
45 3 -26 -103 12 32 -12 127
74 -36 62 20 17 -127 -92 16
69 -37 0 -17 62 -57 46 28
-36 52 127 22 0 -53 11 -49
-17 1 -10 -21 27 13 -12 -6
-49 -34 103 -21 -11 -127 -30 -9
12 -67 6 -14 -19 23 -64 -18
-41 38 -12 -77 -127 16 32 25
3 45 -41 85 12 30 19 -25
22 -20 73 8 -9 15 -35 34
-55 -25 -40 54 -127 7 76 0
51 -16 -17 -17 -8 -17 44 3
33 -32 4 15 -13 -32 -127 -18
67 8 54 7 -14 -14 -127 -15
-3 -94 31 -30 42 28 -11 -7
-54 66 73 -50 5 -127 -73 -80
-13 -30 42 -49 61 26 -66 93
-69 -27 -35 -59 -90 31 6 -22
110 14 21 -35 42 -127 -62 -12

tfl.pseudo_qconst7 i1 [1, 1, 3, 16]
00000000: 7fd8 910c 5b71 3b81 7fa5 f333 c143 b0f5
00000010: 8181 817f 7f7f 7ffb 125d 81fc 057f 8181
00000020: 84c6 ea36 4ce4 323e b37f ce81 7f0b 39d7
127 -40 -111 12 91 113 59 -127
127 -91 -13 51 -63 67 -80 -11
-127 -127 -127 127 127 127 127 -5
18 93 -127 -4 5 127 -127 -127
-124 -58 -22 54 76 -28 50 62
-77 127 -50 -127 127 11 57 -41

tfl.pseudo_qconst8 i1 [16] scale=0.0121763265 zero_point=127
00000000: 49fb 6c57 5068 73df 8050 412c 155f 4a33
-0.6575216 -1.6072751 -0.2313502 -0.48705307 -0.5722873 -0.28005552 -0.14611591 -1.9482123
-3.1049633 -0.5722873 -0.7549322 -1.0106351 -1.2906907 -0.38964245 -0.64534533 -0.9254008

tfl.pseudo_qconst9 i1 [16] scale=0.065315254 zero_point=-128
00000000: e6b2 7fcf b014 62a5 c4d0 cbd2 cfe4 cbc1
6.662156 3.2657628 16.65539 5.159905 3.1351323 9.666657 14.761248 2.4166644
4.4414372 5.22522 4.898644 5.3558507 5.159905 6.5315256 4.898644 4.2454915

tfl.pseudo_qconst11 i1 [16, 1, 1, 8]
00000000: 6391 ac5e ce7f 5935 85fa 2d12 f1d0 7fed
00000010: dcdc 2f7f e7f3 0426 fb81 b6eb cbad f73b
00000020: 4623 3699 5f29 0981 dc38 722c 81d7 c42f
00000030: 2919 814a 9896 4c5a ec81 3db3 fcff e0f7
00000040: f5e0 5509 7f77 19ed fedf aa7f 11e6 1cfc
00000050: 4801 c648 7308 8173 5c02 1391 0313 bb7f
00000060: 007f 0603 e80b f1d1 5b05 2bfc 337f 43d2
00000070: 1884 7df8 2f7f a8e4 f941 0cc3 d7e8 7f38
99 -111 -84 94 -50 127 89 53
-123 -6 45 18 -15 -48 127 -19
-36 -36 47 127 -25 -13 4 38
-5 -127 -74 -21 -53 -83 -9 59
70 35 54 -103 95 41 9 -127
-36 56 114 44 -127 -41 -60 47
41 25 -127 74 -104 -106 76 90
-20 -127 61 -77 -4 -1 -32 -9
-11 -32 85 9 127 119 25 -19
-2 -33 -86 127 17 -26 28 -4
72 1 -58 72 115 8 -127 115
92 2 19 -111 3 19 -69 127
0 127 6 3 -24 11 -15 -47
91 5 43 -4 51 127 67 -46
24 -124 125 -8 47 127 -88 -28
-7 65 12 -61 -41 -24 127 56

tfl.pseudo_qconst13 i1 [1, 1, 3, 8]
00000000: 8168 2dc5 e710 7e91 946b d581 6e7f 0f81
00000010: d881 818d 7f5a 81a6
-127 104 45 -59 -25 16 126 -111
-108 107 -43 -127 110 127 15 -127
-40 -127 -127 -115 127 90 -127 -90

tfl.pseudo_qconst14 i1 [8] scale=0.006335662 zero_point=127
00000000: 1764 da11 2f15 8006
-0.65890884 -0.17106289 -1.0453843 -0.69692284 -0.506853 -0.6715802 -1.6155939 -0.76661515

tfl.pseudo_qconst15 i1 [8] scale=0.0044562747 zero_point=-128
00000000: 3eea 344a 4e05 377f
0.8466922 0.4723651 0.80212945 0.90016747 0.9179926 0.5926845 0.8154983 1.13635

tfl.pseudo_qconst17 i1 [8, 1, 3, 13]
00000000: 8122 2930 1708 10fa f1e0 05fd 0398 481d
00000010: 170e 03ee e4dd e8fd f903 d611 11f1 fc0f
00000020: e1ce d1f7 f0f9 0040 e5ef 0de4 fde5 f4f4
00000030: 0e01 faf4 7f41 1227 fbe5 d7f2 ef0f 03fe
00000040: f77f 20f9 3002 e3e4 0202 ff09 f8fc 90c0
00000050: 3c52 10f9 10e4 ced7 01f7 edb7 f913 6316
00000060: e4ff f5cd d8ee f8f4 1c03 2e7f 19db ffda
00000070: cfd7 e6e9 f598 0b2c 1132 1c35 131b 1500
00000080: 0d09 bb94 f0d8 0100 f215 fd08 030f 0521
00000090: 81ea d8e3 ded1 efdc f3fa 0600 fc06 09c6
000000a0: 2e1b 06d4 b6cf 0416 e4cb 1c00 ec23 3ff3
000000b0: f5d0 effa dff2 812b ef34 5429 e1f6 ebf2
000000c0: ebd4 f7cf 480f 04a7 230e f1eb fbee 0c06
000000d0: 037f 2bf6 bc18 27f9 eaf5 ed05 0435 2136
000000e0: eecb 0e10 f6e5 f2e4 09f9 0dfd e6ce 3f30
000000f0: 28f1 1306 06ee 0049 28b8 eb45 38f7 f6f2
-127 34 41 48 23 8 16 -6
-15 -32 5 -3 3 -104 72 29
23 14 3 -18 -28 -35 -24 -3
-7 3 -42 17 17 -15 -4 15
-31 -50 -47 -9 -16 -7 0 64
-27 -17 13 -28 -3 -27 -12 -12
14 1 -6 -12 127 65 18 39
-5 -27 -41 -14 -17 15 3 -2
-9 127 32 -7 48 2 -29 -28
2 2 -1 9 -8 -4 -112 -64
60 82 16 -7 16 -28 -50 -41
1 -9 -19 -73 -7 19 99 22
-28 -1 -11 -51 -40 -18 -8 -12
28 3 46 127 25 -37 -1 -38
-49 -41 -26 -23 -11 -104 11 44
17 50 28 53 19 27 21 0
13 9 -69 -108 -16 -40 1 0
-14 21 -3 8 3 15 5 33
-127 -22 -40 -29 -34 -47 -17 -36
-13 -6 6 0 -4 6 9 -58
46 27 6 -44 -74 -49 4 22
-28 -53 28 0 -20 35 63 -13
-11 -48 -17 -6 -33 -14 -127 43
-17 52 84 41 -31 -10 -21 -14
-21 -44 -9 -49 72 15 4 -89
35 14 -15 -21 -5 -18 12 6
3 127 43 -10 -68 24 39 -7
-22 -11 -19 5 4 53 33 54
-18 -53 14 16 -10 -27 -14 -28
9 -7 13 -3 -26 -50 63 48
40 -15 19 6 6 -18 0 73
40 -72 -21 69 56 -9 -10 -14
