models/model4.tflite (tflite, 9848 bytes, 8 tensors)

tfl.pseudo_qconst1 i1 [10, 16]
00000000: 0847 d1e8 81e1 b1e5 645e c719 26d1 e25f
00000010: f3d9 3207 1727 fb7f 0a29 b26a 310e dec0
00000020: d8f5 7fc9 11dc 53ef c985 2fe9 c699 7ed4
00000030: 7feb 1737 112b c2bc 0b0a 07d6 50e2 00c9
00000040: b24b 82f6 a00c 379d cc7f f11a dfa1 591a
00000050: c4f1 81bb 690a 08ff cb35 f500 3135 ef2f
00000060: 0fd0 227f 2b93 0fcf eb8c 41f2 bf7a ebb6
00000070: c439 2e7c 0881 47fb 0687 25e1 8e8f d93a
00000080: dfec adb3 e840 d71e fbbd ee81 bd06 d9c2
00000090: 1622 31d8 1a7f da08 24ba e01f 1861 f42a
8 71 -47 -24 -127 -31 -79 -27
100 94 -57 25 38 -47 -30 95
-13 -39 50 7 23 39 -5 127
10 41 -78 106 49 14 -34 -64
-40 -11 127 -55 17 -36 83 -17
-55 -123 47 -23 -58 -103 126 -44
127 -21 23 55 17 43 -62 -68
11 10 7 -42 80 -30 0 -55
-78 75 -126 -10 -96 12 55 -99
-52 127 -15 26 -33 -95 89 26
-60 -15 -127 -69 105 10 8 -1
-53 53 -11 0 49 53 -17 47
15 -48 34 127 43 -109 15 -49
-21 -116 65 -14 -65 122 -21 -74
-60 57 46 124 8 -127 71 -5
6 -121 37 -31 -114 -113 -39 58
-33 -20 -83 -77 -24 64 -41 30
-5 -67 -18 -127 -67 6 -39 -62
22 34 49 -40 26 127 -38 8
36 -70 -32 31 24 97 -12 42

tfl.pseudo_qconst2 i1 [16] scale=0.05667373 zero_point=127
00000000: 687a bc66 5664 6c80 6b6f 7069 4d7c 7e4b
-1.3034959 -0.28336865 -11.051377 -1.4168433 -2.323623 -1.5301907 -1.076801 -14.451801
-1.1334746 -0.9067797 -0.850106 -1.2468221 -2.8336866 -0.17002119 -0.05667373 -2.9470341

tfl.pseudo_qconst3 i1 [16] scale=0.10561626 zero_point=-128
00000000: e61d e2e8 f3e7 e6e3 de5f 30e1 067f 4cda
10.772859 16.581753 10.350393 10.984091 12.145869 10.878474 10.772859 10.45601
9.927928 23.552425 18.58846 10.244777 14.152578 26.932146 21.545717 9.505463

tfl.pseudo_qconst5 i1 [16, 1, 1, 8]
00000000: cc71 34a4 7fd4 27ef 2f95 e3e9 7fd8 4b34
00000010: 8b1c 716c dff5 4281 f3b3 7faf 179b e1be
00000020: 4f0f ce56 4681 5197 e20b df88 e30e 8154
00000030: 110b 81fc 0f31 9731 a4fa 22ca f97f 758e
00000040: ecb9 77c5 69d9 137f 0b09 38ac 937f e6f4
00000050: cd0d dd93 337f 4c13 7cec eb7f 5db3 aa6c
00000060: a7f8 3df1 da7f 9713 4a40 bc82 11ba e07f
00000070: 011d 0a7f a1d2 486c ff7f f312 c81e 0f10
-52 113 52 -92 127 -44 39 -17
47 -107 -29 -23 127 -40 75 52
-117 28 113 108 -33 -11 66 -127
-13 -77 127 -81 23 -101 -31 -66
79 15 -50 86 70 -127 81 -105
-30 11 -33 -120 -29 14 -127 84
17 11 -127 -4 15 49 -105 49
-92 -6 34 -54 -7 127 117 -114
-20 -71 119 -59 105 -39 19 127
11 9 56 -84 -109 127 -26 -12
-51 13 -35 -109 51 127 76 19
124 -20 -21 127 93 -77 -86 108
-89 -8 61 -15 -38 127 -105 19
74 64 -68 -126 17 -70 -32 127
1 29 10 127 -95 -46 72 108
-1 127 -13 18 -56 30 15 16

tfl.pseudo_qconst7 i1 [1, 1, 3, 8]
00000000: c4d7 a65b a6a6 b2b2 8181 817f 8181 8181
00000010: b5a1 cc27 bfb3 cad2
-60 -41 -90 91 -90 -90 -78 -78
-127 -127 -127 127 -127 -127 -127 -127
-75 -95 -52 39 -65 -77 -54 -46

tfl.pseudo_qconst8 i1 [8] scale=0.00635827 zero_point=77
00000000: 7fe5 a180 12ec bd9b
0.3179135 -0.66126007 -1.0936224 -1.3034453 -0.37513793 -0.6167522 -0.9155909 -1.131772

tfl.pseudo_qconst9 i1 [8] scale=0.0051157326 zero_point=-128
00000000: 7f03 0807 0ed7 06fd
1.3045118 0.67016095 0.6957396 0.6906239 0.726434 0.44506872 0.68550813 0.6394666

tfl.pseudo_qconst11 i1 [8, 1, 8, 13]
00000000: 6fd3 d761 2afc de23 0f13 00da f666 eaf3
00000010: 2f1e 00d3 1d07 0ff8 e9f1 7fca e3fd fcfc
00000020: edf2 262f fff7 f054 d9bb 121f 14f1 ed04
00000030: 1811 ecf2 294a fcb0 ef22 28df 051c 0119
00000040: f52d 3c11 c8df 1d0d dff5 fb18 0d07 e94c
00000050: 24d7 eb1c 1b03 e6f3 1b12 fedf 531d c6cf
00000060: 052a 0efe fef8 250b 5e49 fb1e f308 071f
00000070: 061c faf0 0936 0d0b 0dff 0ce7 0803 07fe
00000080: e804 141b 2110 0e01 f106 0b05 07f8 00f6
00000090: f509 15f9 f5f6 feff 0301 0b06 e48e 0ddf
000000a0: 01fd efe4 0def 0211 0523 b700 e1fd f213
000000b0: 0904 02f5 1dfc 2b81 ede1 f6f3 06fd f409
000000c0: f412 0a43 af02 dbfd f9fe 10f5 08f9 0b05
000000d0: 5cce dd12 fc04 0a11 030a 0ff3 ec53 d3f4
000000e0: 2605 f3eb 10fe 05ff fcf3 30d9 ea43 0ff8
000000f0: e60f 0c01 0404 fe15 cbfc 400d dcf4 fefc
111 -45 -41 97 42 -4 -34 35
15 19 0 -38 -10 102 -22 -13
47 30 0 -45 29 7 15 -8
-23 -15 127 -54 -29 -3 -4 -4
-19 -14 38 47 -1 -9 -16 84
-39 -69 18 31 20 -15 -19 4
24 17 -20 -14 41 74 -4 -80
-17 34 40 -33 5 28 1 25
-11 45 60 17 -56 -33 29 13
-33 -11 -5 24 13 7 -23 76
36 -41 -21 28 27 3 -26 -13
27 18 -2 -33 83 29 -58 -49
5 42 14 -2 -2 -8 37 11
94 73 -5 30 -13 8 7 31
6 28 -6 -16 9 54 13 11
13 -1 12 -25 8 3 7 -2
-24 4 20 27 33 16 14 1
-15 6 11 5 7 -8 0 -10
-11 9 21 -7 -11 -10 -2 -1
3 1 11 6 -28 -114 13 -33
1 -3 -17 -28 13 -17 2 17
5 35 -73 0 -31 -3 -14 19
9 4 2 -11 29 -4 43 -127
-19 -31 -10 -13 6 -3 -12 9
-12 18 10 67 -81 2 -37 -3
-7 -2 16 -11 8 -7 11 5
92 -50 -35 18 -4 4 10 17
3 10 15 -13 -20 83 -45 -12
38 5 -13 -21 16 -2 5 -1
-4 -13 48 -39 -22 67 15 -8
-26 15 12 1 4 4 -2 21
-53 -4 64 13 -36 -12 -2 -4
